…
62/62 [==============================] - ETA: 0s - loss: 0.3487 - hinge_accuracy: 0.896262/62 [==============================] - 7s 117ms/step - loss: 0.3487 - hinge_accuracy: 0.8962
Model: "sequential_1"
_________________________________________________________________
Layer (type)                 Output Shape              Param #   
=================================================================
conv2d (Conv2D)              (None, 26, 26, 32)        320       
_________________________________________________________________
conv2d_1 (Conv2D)            (None, 24, 24, 64)        18496     
_________________________________________________________________
max_pooling2d (MaxPooling2D) (None, 12, 12, 64)        0         
_________________________________________________________________
dropout (Dropout)            (None, 12, 12, 64)        0         
_________________________________________________________________
flatten (Flatten)            (None, 9216)              0         
_________________________________________________________________
dense (Dense)                (None, 128)               1179776   
_________________________________________________________________
dropout_1 (Dropout)          (None, 128)               0         
_________________________________________________________________
dense_1 (Dense)              (None, 1)                 129       
=================================================================
Total params: 1,198,721
Trainable params: 1,198,721
Non-trainable params: 0
_________________________________________________________________
 1/95 [..............................] - ETA: 54s - loss: 0.6831 - accuracy: 0.5156 2/95 [.........
…
